Model: "Attention-UNET"
┏━━━━━━━━━━━━━━━━━━━━━━━━━━━━┳━━━━━━━━━━━━━━━━━━━━━━━━┳━━━━━━━━━━━━━━━┳━━━━━━━━━━━━━━━━━━━━━━━━━┓
┃ Layer (type)               ┃ Output Shape           ┃       Param # ┃ Connected to            ┃
┡━━━━━━━━━━━━━━━━━━━━━━━━━━━━╇━━━━━━━━━━━━━━━━━━━━━━━━╇━━━━━━━━━━━━━━━╇━━━━━━━━━━━━━━━━━━━━━━━━━┩
│ input_layer (InputLayer)   │ (None, 256, 256, 3)    │             0 │ -                       │
├────────────────────────────┼────────────────────────┼───────────────┼─────────────────────────┤
│ conv2d (Conv2D)            │ (None, 256, 256, 64)   │         1,792 │ input_layer[0][0]       │
├────────────────────────────┼────────────────────────┼───────────────┼─────────────────────────┤
│ batch_normalization        │ (None, 256, 256, 64)   │           256 │ conv2d[0][0]            │
│ (BatchNormalization)       │                        │               │                         │
├────────────────────────────┼────────────────────────┼───────────────┼─────────────────────────┤
│ activation (Activation)    │ (None, 256, 256, 64)   │             0 │ batch_normalization[0]… │
├────────────────────────────┼────────────────────────┼───────────────┼─────────────────────────┤
│ conv2d_1 (Conv2D)          │ (None, 256, 256, 64)   │        36,928 │ activation[0][0]        │
├────────────────────────────┼────────────────────────┼───────────────┼─────────────────────────┤
│ batch_normalization_1      │ (None, 256, 256, 64)   │           256 │ conv2d_1[0][0]          │
│ (BatchNormalization)       │                        │               │                         │
├────────────────────────────┼────────────────────────┼───────────────┼─────────────────────────┤
│ activation_1 (Activation)  │ (None, 256, 256, 64)   │             0 │ batch_normalization_1[… │
├────────────────────────────┼────────────────────────┼───────────────┼─────────────────────────┤
│ max_pooling2d              │ (None, 128, 128, 64)   │             0 │ activation_1[0][0]      │
│ (MaxPooling2D)             │                        │               │                         │
├────────────────────────────┼────────────────────────┼───────────────┼─────────────────────────┤
│ conv2d_2 (Conv2D)          │ (None, 128, 128, 128)  │        73,856 │ max_pooling2d[0][0]     │
├────────────────────────────┼────────────────────────┼───────────────┼─────────────────────────┤
│ batch_normalization_2      │ (None, 128, 128, 128)  │           512 │ conv2d_2[0][0]          │
│ (BatchNormalization)       │                        │               │                         │
├────────────────────────────┼────────────────────────┼───────────────┼─────────────────────────┤
│ activation_2 (Activation)  │ (None, 128, 128, 128)  │             0 │ batch_normalization_2[… │
├────────────────────────────┼────────────────────────┼───────────────┼─────────────────────────┤
│ conv2d_3 (Conv2D)          │ (None, 128, 128, 128)  │       147,584 │ activation_2[0][0]      │
├────────────────────────────┼────────────────────────┼───────────────┼─────────────────────────┤
│ batch_normalization_3      │ (None, 128, 128, 128)  │           512 │ conv2d_3[0][0]          │
│ (BatchNormalization)       │                        │               │                         │
├────────────────────────────┼────────────────────────┼───────────────┼─────────────────────────┤
│ activation_3 (Activation)  │ (None, 128, 128, 128)  │             0 │ batch_normalization_3[… │
├────────────────────────────┼────────────────────────┼───────────────┼─────────────────────────┤
│ max_pooling2d_1            │ (None, 64, 64, 128)    │             0 │ activation_3[0][0]      │
│ (MaxPooling2D)             │                        │               │                         │
├────────────────────────────┼────────────────────────┼───────────────┼─────────────────────────┤
│ conv2d_4 (Conv2D)          │ (None, 64, 64, 256)    │       295,168 │ max_pooling2d_1[0][0]   │
├────────────────────────────┼────────────────────────┼───────────────┼─────────────────────────┤
│ batch_normalization_4      │ (None, 64, 64, 256)    │         1,024 │ conv2d_4[0][0]          │
│ (BatchNormalization)       │                        │               │                         │
├────────────────────────────┼────────────────────────┼───────────────┼─────────────────────────┤
│ activation_4 (Activation)  │ (None, 64, 64, 256)    │             0 │ batch_normalization_4[… │
├────────────────────────────┼────────────────────────┼───────────────┼─────────────────────────┤
│ conv2d_5 (Conv2D)          │ (None, 64, 64, 256)    │       590,080 │ activation_4[0][0]      │
├────────────────────────────┼────────────────────────┼───────────────┼─────────────────────────┤
│ batch_normalization_5      │ (None, 64, 64, 256)    │         1,024 │ conv2d_5[0][0]          │
│ (BatchNormalization)       │                        │               │                         │
├────────────────────────────┼────────────────────────┼───────────────┼─────────────────────────┤
│ activation_5 (Activation)  │ (None, 64, 64, 256)    │             0 │ batch_normalization_5[… │
├────────────────────────────┼────────────────────────┼───────────────┼─────────────────────────┤
│ max_pooling2d_2            │ (None, 32, 32, 256)    │             0 │ activation_5[0][0]      │
│ (MaxPooling2D)             │                        │               │                         │
├────────────────────────────┼────────────────────────┼───────────────┼─────────────────────────┤
│ conv2d_6 (Conv2D)          │ (None, 32, 32, 512)    │     1,180,160 │ max_pooling2d_2[0][0]   │
├────────────────────────────┼────────────────────────┼───────────────┼─────────────────────────┤
│ batch_normalization_6      │ (None, 32, 32, 512)    │         2,048 │ conv2d_6[0][0]          │
│ (BatchNormalization)       │                        │               │                         │
├────────────────────────────┼────────────────────────┼───────────────┼─────────────────────────┤
│ activation_6 (Activation)  │ (None, 32, 32, 512)    │             0 │ batch_normalization_6[… │
├────────────────────────────┼────────────────────────┼───────────────┼─────────────────────────┤
│ conv2d_7 (Conv2D)          │ (None, 32, 32, 512)    │     2,359,808 │ activation_6[0][0]      │
├────────────────────────────┼────────────────────────┼───────────────┼─────────────────────────┤
│ batch_normalization_7      │ (None, 32, 32, 512)    │         2,048 │ conv2d_7[0][0]          │
│ (BatchNormalization)       │                        │               │                         │
├────────────────────────────┼────────────────────────┼───────────────┼─────────────────────────┤
│ activation_7 (Activation)  │ (None, 32, 32, 512)    │             0 │ batch_normalization_7[… │
├────────────────────────────┼────────────────────────┼───────────────┼─────────────────────────┤
│ up_sampling2d              │ (None, 64, 64, 512)    │             0 │ activation_7[0][0]      │
│ (UpSampling2D)             │                        │               │                         │
├────────────────────────────┼────────────────────────┼───────────────┼─────────────────────────┤
│ conv2d_8 (Conv2D)          │ (None, 64, 64, 256)    │       131,328 │ up_sampling2d[0][0]     │
├────────────────────────────┼────────────────────────┼───────────────┼─────────────────────────┤
│ conv2d_9 (Conv2D)          │ (None, 64, 64, 256)    │        65,792 │ activation_5[0][0]      │
├────────────────────────────┼────────────────────────┼───────────────┼─────────────────────────┤
│ batch_normalization_8      │ (None, 64, 64, 256)    │         1,024 │ conv2d_8[0][0]          │
│ (BatchNormalization)       │                        │               │                         │
├────────────────────────────┼────────────────────────┼───────────────┼─────────────────────────┤
│ batch_normalization_9      │ (None, 64, 64, 256)    │         1,024 │ conv2d_9[0][0]          │
│ (BatchNormalization)       │                        │               │                         │
├────────────────────────────┼────────────────────────┼───────────────┼─────────────────────────┤
│ add (Add)                  │ (None, 64, 64, 256)    │             0 │ batch_normalization_8[… │
│                            │                        │               │ batch_normalization_9[… │
├────────────────────────────┼────────────────────────┼───────────────┼─────────────────────────┤
│ activation_8 (Activation)  │ (None, 64, 64, 256)    │             0 │ add[0][0]               │
├────────────────────────────┼────────────────────────┼───────────────┼─────────────────────────┤
│ conv2d_10 (Conv2D)         │ (None, 64, 64, 256)    │        65,792 │ activation_8[0][0]      │
├────────────────────────────┼────────────────────────┼───────────────┼─────────────────────────┤
│ activation_9 (Activation)  │ (None, 64, 64, 256)    │             0 │ conv2d_10[0][0]         │
├────────────────────────────┼────────────────────────┼───────────────┼─────────────────────────┤
│ multiply (Multiply)        │ (None, 64, 64, 256)    │             0 │ activation_9[0][0],     │
│                            │                        │               │ activation_5[0][0]      │
├────────────────────────────┼────────────────────────┼───────────────┼─────────────────────────┤
│ concatenate (Concatenate)  │ (None, 64, 64, 768)    │             0 │ up_sampling2d[0][0],    │
│                            │                        │               │ multiply[0][0]          │
├────────────────────────────┼────────────────────────┼───────────────┼─────────────────────────┤
│ conv2d_11 (Conv2D)         │ (None, 64, 64, 256)    │     1,769,728 │ concatenate[0][0]       │
├────────────────────────────┼────────────────────────┼───────────────┼─────────────────────────┤
│ batch_normalization_10     │ (None, 64, 64, 256)    │         1,024 │ conv2d_11[0][0]         │
│ (BatchNormalization)       │                        │               │                         │
├────────────────────────────┼────────────────────────┼───────────────┼─────────────────────────┤
│ activation_10 (Activation) │ (None, 64, 64, 256)    │             0 │ batch_normalization_10… │
├────────────────────────────┼────────────────────────┼───────────────┼─────────────────────────┤
│ conv2d_12 (Conv2D)         │ (None, 64, 64, 256)    │       590,080 │ activation_10[0][0]     │
├────────────────────────────┼────────────────────────┼───────────────┼─────────────────────────┤
│ batch_normalization_11     │ (None, 64, 64, 256)    │         1,024 │ conv2d_12[0][0]         │
│ (BatchNormalization)       │                        │               │                         │
├────────────────────────────┼────────────────────────┼───────────────┼─────────────────────────┤
│ activation_11 (Activation) │ (None, 64, 64, 256)    │             0 │ batch_normalization_11… │
├────────────────────────────┼────────────────────────┼───────────────┼─────────────────────────┤
│ up_sampling2d_1            │ (None, 128, 128, 256)  │             0 │ activation_11[0][0]     │
│ (UpSampling2D)             │                        │               │                         │
├────────────────────────────┼────────────────────────┼───────────────┼─────────────────────────┤
│ conv2d_13 (Conv2D)         │ (None, 128, 128, 128)  │        32,896 │ up_sampling2d_1[0][0]   │
├────────────────────────────┼────────────────────────┼───────────────┼─────────────────────────┤
│ conv2d_14 (Conv2D)         │ (None, 128, 128, 128)  │        16,512 │ activation_3[0][0]      │
├────────────────────────────┼────────────────────────┼───────────────┼─────────────────────────┤
│ batch_normalization_12     │ (None, 128, 128, 128)  │           512 │ conv2d_13[0][0]         │
│ (BatchNormalization)       │                        │               │                         │
├────────────────────────────┼────────────────────────┼───────────────┼─────────────────────────┤
│ batch_normalization_13     │ (None, 128, 128, 128)  │           512 │ conv2d_14[0][0]         │
│ (BatchNormalization)       │                        │               │                         │
├────────────────────────────┼────────────────────────┼───────────────┼─────────────────────────┤
│ add_1 (Add)                │ (None, 128, 128, 128)  │             0 │ batch_normalization_12… │
│                            │                        │               │ batch_normalization_13… │
├────────────────────────────┼────────────────────────┼───────────────┼─────────────────────────┤
│ activation_12 (Activation) │ (None, 128, 128, 128)  │             0 │ add_1[0][0]             │
├────────────────────────────┼────────────────────────┼───────────────┼─────────────────────────┤
│ conv2d_15 (Conv2D)         │ (None, 128, 128, 128)  │        16,512 │ activation_12[0][0]     │
├────────────────────────────┼────────────────────────┼───────────────┼─────────────────────────┤
│ activation_13 (Activation) │ (None, 128, 128, 128)  │             0 │ conv2d_15[0][0]         │
├────────────────────────────┼────────────────────────┼───────────────┼─────────────────────────┤
│ multiply_1 (Multiply)      │ (None, 128, 128, 128)  │             0 │ activation_13[0][0],    │
│                            │                        │               │ activation_3[0][0]      │
├────────────────────────────┼────────────────────────┼───────────────┼─────────────────────────┤
│ concatenate_1              │ (None, 128, 128, 384)  │             0 │ up_sampling2d_1[0][0],  │
│ (Concatenate)              │                        │               │ multiply_1[0][0]        │
├────────────────────────────┼────────────────────────┼───────────────┼─────────────────────────┤
│ conv2d_16 (Conv2D)         │ (None, 128, 128, 128)  │       442,496 │ concatenate_1[0][0]     │
├────────────────────────────┼────────────────────────┼───────────────┼─────────────────────────┤
│ batch_normalization_14     │ (None, 128, 128, 128)  │           512 │ conv2d_16[0][0]         │
│ (BatchNormalization)       │                        │               │                         │
├────────────────────────────┼────────────────────────┼───────────────┼─────────────────────────┤
│ activation_14 (Activation) │ (None, 128, 128, 128)  │             0 │ batch_normalization_14… │
├────────────────────────────┼────────────────────────┼───────────────┼─────────────────────────┤
│ conv2d_17 (Conv2D)         │ (None, 128, 128, 128)  │       147,584 │ activation_14[0][0]     │
├────────────────────────────┼────────────────────────┼───────────────┼─────────────────────────┤
│ batch_normalization_15     │ (None, 128, 128, 128)  │           512 │ conv2d_17[0][0]         │
│ (BatchNormalization)       │                        │               │                         │
├────────────────────────────┼────────────────────────┼───────────────┼─────────────────────────┤
│ activation_15 (Activation) │ (None, 128, 128, 128)  │             0 │ batch_normalization_15… │
├────────────────────────────┼────────────────────────┼───────────────┼─────────────────────────┤
│ up_sampling2d_2            │ (None, 256, 256, 128)  │             0 │ activation_15[0][0]     │
│ (UpSampling2D)             │                        │               │                         │
├────────────────────────────┼────────────────────────┼───────────────┼─────────────────────────┤
│ conv2d_18 (Conv2D)         │ (None, 256, 256, 64)   │         8,256 │ up_sampling2d_2[0][0]   │
├────────────────────────────┼────────────────────────┼───────────────┼─────────────────────────┤
│ conv2d_19 (Conv2D)         │ (None, 256, 256, 64)   │         4,160 │ activation_1[0][0]      │
├────────────────────────────┼────────────────────────┼───────────────┼─────────────────────────┤
│ batch_normalization_16     │ (None, 256, 256, 64)   │           256 │ conv2d_18[0][0]         │
│ (BatchNormalization)       │                        │               │                         │
├────────────────────────────┼────────────────────────┼───────────────┼─────────────────────────┤
│ batch_normalization_17     │ (None, 256, 256, 64)   │           256 │ conv2d_19[0][0]         │
│ (BatchNormalization)       │                        │               │                         │
├────────────────────────────┼────────────────────────┼───────────────┼─────────────────────────┤
│ add_2 (Add)                │ (None, 256, 256, 64)   │             0 │ batch_normalization_16… │
│                            │                        │               │ batch_normalization_17… │
├────────────────────────────┼────────────────────────┼───────────────┼─────────────────────────┤
│ activation_16 (Activation) │ (None, 256, 256, 64)   │             0 │ add_2[0][0]             │
├────────────────────────────┼────────────────────────┼───────────────┼─────────────────────────┤
│ conv2d_20 (Conv2D)         │ (None, 256, 256, 64)   │         4,160 │ activation_16[0][0]     │
├────────────────────────────┼────────────────────────┼───────────────┼─────────────────────────┤
│ activation_17 (Activation) │ (None, 256, 256, 64)   │             0 │ conv2d_20[0][0]         │
├────────────────────────────┼────────────────────────┼───────────────┼─────────────────────────┤
│ multiply_2 (Multiply)      │ (None, 256, 256, 64)   │             0 │ activation_17[0][0],    │
│                            │                        │               │ activation_1[0][0]      │
├────────────────────────────┼────────────────────────┼───────────────┼─────────────────────────┤
│ concatenate_2              │ (None, 256, 256, 192)  │             0 │ up_sampling2d_2[0][0],  │
│ (Concatenate)              │                        │               │ multiply_2[0][0]        │
├────────────────────────────┼────────────────────────┼───────────────┼─────────────────────────┤
│ conv2d_21 (Conv2D)         │ (None, 256, 256, 64)   │       110,656 │ concatenate_2[0][0]     │
├────────────────────────────┼────────────────────────┼───────────────┼─────────────────────────┤
│ batch_normalization_18     │ (None, 256, 256, 64)   │           256 │ conv2d_21[0][0]         │
│ (BatchNormalization)       │                        │               │                         │
├────────────────────────────┼────────────────────────┼───────────────┼─────────────────────────┤
│ activation_18 (Activation) │ (None, 256, 256, 64)   │             0 │ batch_normalization_18… │
├────────────────────────────┼────────────────────────┼───────────────┼─────────────────────────┤
│ conv2d_22 (Conv2D)         │ (None, 256, 256, 64)   │        36,928 │ activation_18[0][0]     │
├────────────────────────────┼────────────────────────┼───────────────┼─────────────────────────┤
│ batch_normalization_19     │ (None, 256, 256, 64)   │           256 │ conv2d_22[0][0]         │
│ (BatchNormalization)       │                        │               │                         │
├────────────────────────────┼────────────────────────┼───────────────┼─────────────────────────┤
│ activation_19 (Activation) │ (None, 256, 256, 64)   │             0 │ batch_normalization_19… │
├────────────────────────────┼────────────────────────┼───────────────┼─────────────────────────┤
│ conv2d_23 (Conv2D)         │ (None, 256, 256, 1)    │            65 │ activation_19[0][0]     │
└────────────────────────────┴────────────────────────┴───────────────┴─────────────────────────┘
 Total params: 8,143,169 (31.06 MB)
 Trainable params: 8,135,745 (31.04 MB)
 Non-trainable params: 7,424 (29.00 KB)